LAB5/Python/CNN_model.pkl (torch, 474619 bytes, 14 tensors)

weight f4 [30, 3, 5, 5]
-0.14225298 -0.08866291 -0.057670217 -0.023625094 -0.15739259 0.013326209 0.006186023 -0.0180836
-0.174076 -0.04947655 -0.15999176 0.020271031 -0.07567618 0.021232184 -0.13256097 -0.10717532
-0.07978491 -0.16259104 -0.030767668 -0.182266 -0.15376942 -0.12462893 -0.03543919 -0.13784535
-0.13795575 -0.12585865 -0.21385582 -0.061407175 -0.077513814 -0.20296007 -0.21010518 -0.10018367
-0.030545034 -0.03484187 -0.22672491 -0.09990839 -0.07042351 -0.064633965 -0.105559066 -0.05114833
-0.13068588 -0.17054692 -0.08055356 -0.086999476 -0.17298926 -0.08778753 -0.042053673 -0.21540056
-0.21353996 -0.103492916 -0.25714785 -0.12681082 -0.21167679 -0.1571563 -0.14465354 -0.12913781
-0.20749436 -0.24814007 -0.048699543 -0.2005511 -0.2009936 -0.18681693 -0.13748094 -0.26749042
-0.1172493 -0.1598572 -0.1394476 -0.11267013 -0.026175082 -0.08032854 -0.1625882 -0.175095
-0.15436347 -0.07995019 -0.07288544 -0.0845687 -0.030111618 -0.01647574 -0.12849651 -0.16442636
-0.10194791 -0.14850588 0.013838461 -0.15281738 0.029781908 -0.05105684 -0.146316 -0.19035949
0.014117678 -0.00856165 -0.13609585 -0.11481403 -0.06396158 -0.17697653 -0.11120105 -0.04623596
-0.14009215 -0.1484242 -0.12892029 -0.0075060804 -0.19697203 -0.1807748 -0.14452168 -0.1320405
-0.01820497 -0.10555641 -0.109871686 -0.14567263 -0.0990032 -0.13437276 -0.2219177 -0.097939745
-0.22407909 -0.15780303 -0.13462187 -0.14206783 -0.16286612 -0.03924621 -0.038320936 -0.03407089
-0.13365644 -0.027503118 -0.2220357 -0.21984784 -0.083186075 -0.027673474 -0.184559 -0.20259404
-0.06102513 -0.1171292 -0.15550087 -0.14047334 -0.18412207 -0.21139756 -0.15917811 -0.2240171
-0.23211622 -0.122661635 -0.1589981 -0.17758957 -0.12366458 -0.036434133 -0.10463952 -0.22876027
-0.15206952 -0.1303155 -0.044879235 -0.13291976 -0.021019164 -0.14901441 0.090212345 0.13667075
0.1287223 0.039897565 0.08067497 0.13753837 0.045797776 0.0091167735 0.10187731 0.15737982
0.04152935 0.18333557 0.066658676 0.03800279 0.022419149 0.10971894 0.18126173 0.081907995
0.19543308 0.095627576 0.026862537 0.1421833 0.15624759 0.13863261 0.12914987 0.043558437
0.029581223 0.119197674 -0.03610805 0.036390856 0.12535697 -0.00081541226 -0.052470118 0.034444522
0.03280456 0.0051425905 0.15816855 0.11488458 0.12743668 0.05527442 0.055561885 -0.04139597
0.02330487 0.005283922 0.17806083 0.12588689 0.028955756 -0.060389016 0.10990581 0.1680859
-0.04590348 -0.08689515 -0.07506006 -0.030422356 -0.09009718 0.0006918975 0.008344507 -0.064675
0.043733124 -0.14095202 -0.035582922 -0.034753077 -0.0930486 -0.047571182 0.0073379395 -0.10264799
-0.06712066 0.056913756 -0.0953958 0.042626407 0.03412767 0.030359024 0.0003657077 0.051962834
0.057419993 -0.15017764 -0.09682375 0.07090393 -0.038027134 0.05764598 -0.0042236014 0.06821114
-0.12082715 0.049831115 -0.03411627 0.018335927 -0.057753425 0.09961043 -0.090234935 0.03330996
0.08069448 0.07003369 -0.07102489 -0.020931346 0.08552344 -0.12740253 -0.036198236 -0.12733948
0.072342366 -0.10601683 0.026772786 -0.06912566 0.056430545 -0.016868627 0.084149845 0.06981477
00000000: c4aa 11be e694 b5bd 9b37 6cbd 6a89 c1bc
00000010: 862b 21be 2c56 5a3c 1fb4 ca3b 0f24 94bc
00000020: fb40 32be eca7 4abd e1d4 23be 6f0f a63c
00000030: 1dfc 9abd 1eef ad3c 10be 07be bc7e dbbd
00000040: 4566 a3bd 447e 26be 7a0c fcbc f0a3 3abe
00000050: bb75 1dbe 743d ffbd af28 11bd 5527 0dbe
00000060: 4644 0dbe 17e1 00be 05fd 5abe 1786 7bbd
00000070: 90bf 9ebd c4d4 4fbe d025 57be 192d cdbd
00000080: 9439 fabc 59b6 0ebd 932a 68be c59c ccbd
00000090: 343a 90bd d05e 84bd 5a2f d8bd e980 51bd
000000a0: 85d2 05be daa3 2ebe 44f9 a4bd c82c b2bd
000000b0: 1924 31be f3c9 b3bd 7940 2cbd f791 5cbe
000000c0: 38aa 5abe 18f4 d3bd e2a8 83be b2da 01be
000000d0: cdc1 58be 95ed 20be 0f20 14be b43c 04be
000000e0: 6779 54be 6e18 7ebe 2c79 47bd 445d 4dbe
000000f0: 44d1 4dbe f04c 3fbe cec7 0cbe 81f4 88be
00000100: 6720 f0bd 9bb1 23be 5acb 0ebe 99bf e6bd
00000110: 206d d6bc 4a83 a4bd 857d 26be 1b4c 33be
00000120: 7511 1ebe edbc a3bd f644 95bd 5b32 adbd
00000130: a4ac f6bc 22f8 86bc 9794 03be 625f 28be
00000140: 11ca d0bd ed11 18be b6ba 623c 297c 1cbe
00000150: 30f9 f33c fa20 51bd ddd3 15be 99ed 42be
00000160: d54d 673c 2a46 0cbc b65c 0bbe 9e23 ebbd
00000170: 4afe 82bd 5639 35be 60bd e3bd eb61 3dbd
00000180: 5174 0fbe 83fc 17be ae03 04be 91f5 f5bb
00000190: 09b3 49be 071d 39be 7efd 13be a035 07be
000001a0: 9722 95bc f62d d8bd 6804 e1bd 352b 15be
000001b0: 31c2 cabd 0399 09be 653e 63be a294 c8bd
000001c0: fd74 65be 1e97 21be 51da 09be 3b7a 11be
000001d0: 60c6 26be a2c0 20bd 6af6 1cbd eb8d 0bbd
000001e0: 3cdd 08be 384e e1bc 545d 63be cb1f 61be
000001f0: 765d aabd 7bb3 e2bc 09fd 3cbe d074 4fbe
00000200: 7df5 79bd 6fe1 efbd 9f3b 1fbe 3ed8 0fbe
00000210: 7f8a 3cbe 9a78 58be 96ff 22be bd64 65be
00000220: e0af 6dbe 0636 fbbd 66d0 22be 0ada 35be
00000230: db43 fdbd f53b 15bd 3f4d d6bd 2240 6abe
00000240: 1db8 1bbe 6d71 05be 4ad3 37bd 1e1c 08be
00000250: 6230 acbc 3c97 18be 40c1 b83d 6bf3 0b3e
00000260: c7cf 033e a16b 233d eb38 a53d dcd6 0c3e
00000270: 7396 3b3d 855e 153c 0da5 d03d 2d28 213e
00000280: ae1a 2a3d 52bc 3b3e 5884 883d d0a8 1b3d
00000290: 5da8 b73c 53b4 e03d ad9c 393e 61bf a73d
000002a0: 9c1f 483e 64d8 c33d d30e dc3c 8098 113e
000002b0: 5eff 1f3e b5f5 0d3e dd3f 043e 556a 323d
000002c0: 5254 f23c e91d f43d 09e6 13bd 940e 153d
000002d0: 945d 003e 64c1 55ba e8ea 56bd b315 0d3d
000002e0: 135e 063d 2d83 a83b f0f6 213e 9b48 eb3d
000002f0: c37e 023e 6e67 623d dc94 633d d28e 29bd
00000300: dbe9 be3c c024 ad3b 9455 363e 7ee8 003e
00000310: 9f34 ed3c 795a 77bd 4c16 e13d b61e 2c3e
00000320: 4a05 3cbd 16f6 b1bd 17b9 99bd 4e38 f9bc
00000330: df84 b8bd 7560 353a 66b7 083c 5474 84bd
00000340: 8121 333d ba55 10be 66bf 11bd 3e59 0ebd
00000350: 4490 bebd 00da 42bd 1973 f03b 1c39 d2bd
00000360: 8e76 89bd 661e 693d e05e c3bd 0799 2e3d
00000370: 75c9 0b3d 7db3 f83c 75bc bf39 fbd6 543d
00000380: 3a31 6b3d 2bc8 19be 884b c6bd 1436 913d
00000390: 57c2 1bbd 311e 6c3d 2366 8abb 48b2 8b3d
000003a0: 3a74 f7bd b61b 4c3d 80bd 0bbd 3a35 963c
000003b0: db8e 6cbd 8e00 cc3d 18cd b8bd 0670 083d
000003c0: 2643 a53d d36d 8f3d 7f75 91bd 3778 abbc
000003d0: ea26 af3d cf75 02be 9a44 14bd 4865 02be
000003e0: 3c28 943d 5a1f d9bd 9a52 db3c c191 8dbd
000003f0: b723 673d 1330 8abc c156 ac3d 0cfb 8e3d

bias f4 [30]
0.012399836 0.09074237 -0.11932521 -0.20006919 0.16662025 0.06513423 -0.09345996 -0.16658561
-0.044545703 0.10981117 -0.1388955 -0.011395499 -0.2174893 -0.17273971 -0.16113634 0.1065716
-0.104315266 -0.29214448 -0.34022877 0.14355728 0.07320958 0.010539915 -0.25533485 -0.122223556
-0.19332427 -0.005017259 -0.005294012 -0.024882363 0.13727254 0.014274303
00000000: af28 4b3c 23d7 b93d c760 f4bd f0de 4cbe
00000010: 809e 2a3e 1865 853d ef67 bfbd 6b95 2abe
00000020: 8e75 36bd aee4 e03d 9f3a 0ebe 30b4 3abc
00000030: 84b5 5ebe aee2 30be ed00 25be 3642 da3d
00000040: 3ea3 d5bd f693 95be 7732 aebe ae00 133e
00000050: e7ee 953d 9caf 2c3c 40bb 82be 5850 fabd
00000060: ccf6 45be d267 a4bb 6479 adbb 19d6 cbbc
00000070: 2c91 0c3e c4de 693c

weight f4 [30, 30, 5, 5]
-0.03644094 -0.066866435 -0.0229813 -0.030647097 -0.018278979 -0.052919038 -0.14503182 -0.0915011
-0.08970648 -0.11794044 -0.09777931 -0.1473792 -0.12881625 -0.13499661 -0.08532394 -0.08913224
-0.11364677 -0.14872923 -0.14472686 -0.109160505 -0.08717346 -0.12101599 -0.154542 -0.14756948
-0.15380563 -0.021452444 -0.041758806 -0.06393368 -0.09336938 -0.056838594 -0.09976168 -0.10283477
-0.1402746 -0.15790185 -0.085886694 -0.13611631 -0.18165304 -0.14743961 -0.18205306 -0.12917618
-0.112571694 -0.17527989 -0.18360311 -0.13217373 -0.16231255 -0.13059957 -0.18716986 -0.13095333
-0.18068723 -0.14573114 0.06147625 0.022418797 0.046587814 0.04823109 0.0039917096 0.019315168
0.036534987 0.018956402 0.04547077 0.025135208 0.0445799 0.026264375 0.053159826 0.074405596
0.02856554 0.08655518 0.07347973 0.029499022 0.035300855 0.016320115 0.07743683 0.08195245
0.079285175 0.034092963 0.037337784 0.042233516 0.012559097 -0.01003112 0.018111952 0.043165427
0.0570232 0.026540425 0.013592982 0.04710936 0.044083722 0.039183047 0.010661529 0.03978286
0.009253457 0.03564892 0.06030056 0.018128155 -0.0047820914 0.058467176 0.020247223 0.067257784
0.025180101 0.0003957937 -0.008103327 -0.00070237083 -0.06768293 -0.03246786 -0.045794275 -0.07371502
-0.06869399 -0.12300992 -0.095320195 -0.098417185 -0.11920733 -0.084812894 -0.0989998 -0.11744538
-0.10530527 -0.13485652 -0.1157378 -0.098297454 -0.14119256 -0.112319045 -0.10932553 -0.1639757
-0.06491351 -0.105538495 -0.0969446 -0.11179986 -0.12072556 -0.061388977 -0.10680576 -0.13350627
-0.08533354 -0.07201239 -0.13970332 -0.18241493 -0.16250005 -0.17653188 -0.17758636 -0.1387584
-0.15817708 -0.15466325 -0.1785499 -0.15657723 -0.13384366 -0.22678769 -0.16546638 -0.22167026
-0.15799093 -0.113925315 -0.16593611 -0.20785457 -0.21097076 -0.20174284 0.04228504 0.0035946097
-0.0014233522 -0.015636094 0.033934437 0.025715495 0.00999163 0.02162219 0.037914615 0.01677307
0.06709349 0.032796893 0.03136501 0.05623299 8.276566e-05 0.0385297 0.05144247 0.00877536
0.0058115483 0.069440186 0.05702673 0.052054875 0.0046036276 0.056583576 0.04095194 -0.015165262
-0.010450455 -0.034541033 -0.041655343 -0.012233285 0.027934145 0.017252332 -0.03558041 -0.05324478
-0.024926586 0.029708883 0.01083934 -0.029810205 -0.032056253 -0.04342679 -0.005696162 0.0075552585
-0.022461126 -0.04631049 0.012771286 0.008884707 -0.03996997 -0.05776236 -0.061179783 -0.036289267
-0.025664939 -0.09122322 -0.0763079 -0.03522059 -0.06040813 -0.13346991 -0.14992611 -0.11362089
-0.12384877 -0.0765639 -0.11340163 -0.12523158 -0.16936211 -0.16331676 -0.16032578 -0.08358801
-0.16059789 -0.17338262 -0.11442583 -0.1078952 -0.075389534 -0.11659181 -0.14930154 -0.13439713
-0.13656053 -0.042306084 -0.069779985 -0.057059605 -0.08765337 -0.09962323 -0.102573685 -0.13407442
-0.17977615 -0.117581874 -0.17049125 -0.11742554 -0.14349586 -0.14517502 -0.1882551 -0.18104818
-0.15244953 -0.17369254 -0.15009233 -0.17765886 -0.1414829 -0.15819035 -0.19189312 -0.21100865
-0.20572585 -0.13984498 0.04728164 0.00449937 -0.025579538 -0.019239504 0.005652401 0.04833095
00000000: 1843 15bd 45f1 88bd 4743 bcbc 9f0f fbbc
00000010: ccbd 95bc a2c1 58bd 3983 14be ee64 bbbd
00000020: 08b8 b7bd c28a f1bd 8540 c8bd 93ea 16be
00000030: 68e8 03be 8d3c 0abe 51be aebd f78a b6bd
00000040: a3bf e8bd 7a4c 18be 4733 14be 8b8f dfbd
00000050: 0088 b2bd 3bd7 f7bd 4240 1ebe 741c 17be
00000060: 397f 1dbe 09bd afbc 480b 2bbd a9ef 82bd
00000070: 7238 bfbd 96cf 68bd da4f ccbd 099b d2bd
00000080: 25a4 0fbe 06b1 21be 5de5 afbd 1362 0bbe
00000090: 4103 3abe 69fa 16be 1e6c 3abe c346 04be
000000a0: fd8b e6bd 927c 33be 7402 3cbe 8d58 07be
000000b0: 4335 26be e5bb 05be 75a9 3fbe a118 06be
000000c0: 1306 39be 8b3a 15be 85ce 7b3d a0a7 b73c
000000d0: ddd2 3e3d f78d 453d e3cc 823b d83a 9e3c
000000e0: b6a5 153d 754a 9b3c 8f3f 3a3d 5ae8 cd3c
000000f0: 6a99 363d 6328 d73c 1ebe 593d f661 983d
00000100: 4802 ea3c d843 b13d 8a7c 963d efa7 f13c
00000110: a197 103d c3b1 853c 3397 9e3d b0d6 a73d
00000120: 4460 a23d 10a5 0b3d 81ef 183d 0dfd 2c3d
00000130: acc4 4d3c 9159 24bc 845f 943c 3bce 303d
00000140: 2991 693d 4e6b d93c 19b5 5e3c bff5 403d
00000150: 2291 343d 677e 203d b2ad 2e3c 5af3 223d
00000160: d09b 173c 9a04 123d b8fd 763d 7f81 943c
00000170: 17b3 9cbb 477b 6f3d 81dd a53c 73be 893d
00000180: 8046 ce3c 8882 cf39 d1c3 04bc 4f1f 38ba
00000190: 599d 8abd 05fd 04bd c792 3bbd e7f7 96bd
000001a0: 6faf 8cbd a0ec fbbd 3c37 c3bd f38e c9bd
000001b0: f922 f4bd 62b2 adbd 68c0 cabd 3487 f0bd
000001c0: 4aaa d7bd d417 0abe f107 edbd 2d50 c9bd
000001d0: c894 10be 8707 e6bd 10e6 dfbd 3fe9 27be
000001e0: 60f1 84bd 9124 d8bd e48a c6bd 53f7 e4bd
000001f0: f63e f7bd 0273 7bbd fabc dabd deb5 08be
00000200: 5ac3 aebd 3b7b 93bd 630e 0fbe fbca 3abe
00000210: 6a66 26be c6c4 34be 33d9 35be af16 0ebe
00000220: 2cf9 21be 0b60 1ebe c9d5 36be c855 20be
00000230: 500e 09be 083b 68be 0570 29be 87fd 62be
00000240: 60c8 21be ad51 e9bd 28eb 29be d4d7 54be
00000250: b808 58be ad95 4ebe 1433 2d3d 8b93 6b3b
00000260: c68f baba 4417 80bc d6fe 0a3d 4da9 d23c
00000270: efb3 233c 0521 b13c 5b4c 1b3d ad67 893c
00000280: 5068 893d 0956 063d 9978 003d 9054 663d
00000290: 7a92 ad38 52d1 1d3d 57b5 523d 87c6 0f3c
000002a0: cd6e be3b a836 8e3d dc94 693d 7e37 553d
000002b0: 07da 963b 2ec4 673d 39bd 273d b877 78bc
000002c0: 6338 2bbc e67a 0dbd cb9e 2abd 1e6e 48bc
000002d0: 26d6 e43c c354 8d3c c4bc 11bd 3317 5abd
000002e0: d732 ccbc 0b60 f33c 7d97 313c 8834 f4bc
000002f0: 6b4d 03bd 4ae0 31bd dfa6 babb 1a92 f73b
00000300: 6500 b8bc 12b0 3dbd a83e 513c 2991 113c
00000310: 8db7 23bd 3998 6cbd a797 7abd 0ea4 14bd
00000320: 473f d2bc 3dd3 babd 5147 9cbd 7743 10bd
00000330: 846e 77bd 56ac 08be 3b86 19be 12b2 e8bd
00000340: 6da4 fdbd 89cd 9cbd 1d3f e8bd b53c 00be
00000350: 436d 2dbe 823c 27be 712c 24be 3130 abbd
00000360: c673 24be 378b 31be 1758 eabd 29f8 dcbd
00000370: d465 9abd b0c7 eebd 81e2 18be 679f 09be
00000380: 86d6 0bbe 2549 2dbd cfe8 8ebd 55b7 69bd
00000390: 9c83 b3bd 4407 ccbd 2712 d2bd ce4a 09be
000003a0: 3d17 38be c4ce f0bd 4295 2ebe cd7c f0bd
000003b0: 94f0 12be c3a8 14be f2c5 40be b264 39be
000003c0: bb1b 1cbe 75dc 31be ceb1 19be 34ec 35be
000003d0: e5e0 10be a7fc 21be a17f 44be a712 58be
000003e0: cca9 52be 8633 0fbe 65aa 413d 746f 933b
000003f0: 2e8c d1bc 2a9c 9dbc c737 b93b adf6 453d

bias f4 [30]
-0.0020583847 0.025874788 -0.042652264 0.07010436 -0.06317799 -0.026697362 -0.021803327 -0.048764654
-0.04434423 0.02819526 -0.0039924947 0.041462403 -0.047483124 0.03417525 -0.0047039604 0.011817428
-0.03355689 -0.062397562 0.021041002 -0.050835248 0.03282408 -0.034503985 -0.02279582 -0.04416599
-0.041826013 0.0019856892 -0.01653707 -0.046379846 0.02883329 -0.03808804
00000000: f7e5 06bb 5df7 d33c 24b4 2ebd e092 8f3d
00000010: 7663 81bd 6db4 dabc e49c b2bc 72bd 47bd
00000020: 4ca2 35bd bff9 e63c 79d3 82bb 7bd4 293d
00000030: aa7d 42bd 59fb 0b3d ae23 9abb e39d 413c
00000040: f372 09bd 9694 7fbd 2e5e ac3c 9f38 50bd
00000050: 8b72 063d 0d54 0dbd 4dbe babc 66e7 34bd
00000060: c151 2bbd 5622 023b c078 87bc cbf8 3dbd
00000070: cb33 ec3c 3402 1cbd

weight f4 [30, 30, 5, 5]
0.054021273 0.0714279 0.063247114 0.025070587 0.027168926 0.031343162 0.020254167 0.04354425
0.024145115 0.005447038 -0.020380154 -0.02172812 -0.034999456 -0.057226032 -0.06237875 -0.05667687
-0.058836505 -0.080380574 -0.12107898 -0.08024372 -0.020539867 -0.0633715 -0.028034275 -0.030304525
-0.06612892 0.05192136 0.03389528 0.017639797 -0.01653656 0.023786142 -0.030935174 0.0006494704
0.008894714 -0.01942035 -0.0506729 -0.040040538 -0.036471307 -0.087575935 -0.08089182 -0.09722878
-0.07704839 -0.051332682 -0.08417583 -0.07123128 -0.077991836 0.016724091 0.005692873 -0.0687842
-0.03877504 -0.06999743 0.1720505 0.14669399 0.1440089 0.14944315 0.058641177 0.1487961
0.21044905 0.17025886 0.15692769 0.13846429 0.032295275 0.049654633 0.08295866 0.030799137
0.009042915 -0.07691338 -0.12055749 -0.18289055 -0.24728696 -0.2067114 0.018798135 -0.012801188
-0.030655848 -0.098071255 -0.15534993 -0.1997961 0.0042685866 0.13459185 -0.018538395 0.022452656
-0.20373538 0.0038325216 -0.10235797 -0.27995571 -0.25983495 0.4352639 0.24370126 0.08392279
-0.265394 -0.20697173 0.30551547 -0.033806752 -0.044740893 -0.14907882 -0.14615528 0.2714429
-0.11838403 -0.053919632 -0.10430327 -0.08118561 -0.16817908 -0.20121135 -0.21499716 -0.21558481
-0.20099643 -0.0928878 -0.12907083 -0.10388679 -0.099083275 -0.17715444 0.032439265 0.05878994
0.0866374 0.06224296 0.020034099 0.11427514 0.17273195 0.19570579 0.21028419 0.1356568
0.0047473717 0.049055576 0.08295478 0.10610249 0.042605445 -0.2047677 -0.25481653 -0.1928747
-0.18672048 -0.16719455 -0.107837364 -0.12417917 -0.11325354 -0.12789422 -0.14921735 0.02706191
0.046972845 0.08763136 0.055581108 0.008330853 0.099512234 0.1850286 0.22895858 0.19875875
0.1406833 -0.019189904 0.07743973 0.06726722 0.08192245 0.0874816 0.14934422 0.106322415
0.088030845 0.14775345 0.107331835 0.06697267 0.0718581 0.1377861 0.10117497 0.083297335
-0.042978674 -0.06739841 -0.038820267 0.02233785 0.016233796 -0.17856494 -0.18258147 -0.24473497
-0.25459388 -0.19856681 -0.032064702 -0.052899957 -0.03321531 -0.06941712 -0.08469799 -0.18762146
-0.19939864 -0.23826277 -0.223387 -0.23989382 -0.118308134 -0.075732954 -0.123444125 -0.13154091
-0.17317726 0.09079208 0.13130425 0.096366055 0.054421436 0.07087731 0.15141685 0.1740961
0.23614766 0.21389306 0.16706195 0.008595897 0.13082768 0.16026555 0.13302854 0.118877575
0.16787237 0.16578402 0.1456958 0.17027019 0.07934539 0.09041925 0.14291018 0.18598953
0.17292461 0.12107425 -0.049835045 -0.057818815 -0.054856148 0.025249463 0.013640922 -0.23909718
-0.26665255 -0.28256214 -0.31050995 -0.29305735 -0.013050216 -0.003114999 -0.02988944 0.008803251
-0.01720029 0.019714987 0.06999269 0.031795524 0.00968504 0.0312922 0.01331868 -0.030129714
-0.0125598945 -0.030827116 -0.04564999 -0.030365247 -0.07026143 -0.03675538 -0.024396487 -0.06825885
-0.03495855 -0.03867896 -0.07153828 -0.09959966 -0.062133543 -0.021970946 -0.023337098 -0.048489615
-0.018102063 -0.07411102 0.11381634 0.15813003 0.13101745 0.10264448 0.11689447 0.105374396
00000000: 6945 5d3d ca48 923d b487 813d d560 cd3c
00000010: 5e91 de3c b061 003d 11ec a53c 755b 323d
00000020: facb c53c 117d b23b 48f4 a6bc 2cff b1bc
00000030: 975b 0fbd d865 6abd dc80 7fbd 0126 68bd
00000040: 8cfe 70bd 929e a4bd 42f8 f7bd d256 a4bd
00000050: 3943 a8bc ebc8 81bd 23a8 e5bc 3241 f8bc
00000060: 996e 87bd 7eab 543d c7d5 0a3d 5681 903c
00000070: ae77 87bc 28db c23c c36b fdbc 3941 2a3a
00000080: 22bb 113c 6d17 9fbc 638e 4fbd 8c01 24bd
00000090: f062 15bd 035b b3bd 9caa a5bd e21f c7bd
000000a0: 8ccb 9dbd 3842 52bd 6164 acbd b5e1 91bd
000000b0: 2fba 9fbd f600 893c 488b ba3b bbde 8cbd
000000c0: 94d2 1ebd d05a 8fbd 022e 303e f336 163e
000000d0: 1277 133e a007 193e bb31 703d 015e 183e
000000e0: f57f 573e 5758 2e3e a7b1 203e 95c9 0d3e
000000f0: 0d48 043d a862 4b3d 3be6 a93d 794e fc3c
00000100: bc28 143c c384 9dbd d8e6 f6bd a947 3bbe
00000110: cb38 7dbe 27ac 53be 8cfe 993c 13bc 51bc
00000120: f921 fbbc 95d9 c8bd 0d14 1fbe 5997 4cbe
00000130: 80df 8b3b 72d2 093e d5dd 97bc a2ee b73c
00000140: 02a0 50be 0b2b 7b3b 0ea1 d1bd 5b56 8fbe
00000150: 1609 85be e9da de3e d38c 793e b6df ab3d
00000160: b9e1 87be 66f0 53be 866c 9c3e f378 0abd
00000170: 3a42 37bd 1ea8 18be bba9 15be 90fa 8a3e
00000180: 5473 f2bd d5da 5cbd f49c d5bd a444 a6bd
00000190: 2337 2cbe 590a 4ebe 3728 5cbe 44c2 5cbe
000001a0: 02d2 4dbe f53b bebd 252b 04be 99c2 d4bd
000001b0: 2cec cabd f967 35be 09df 043d b8cd 703d
000001c0: f36e b13d 79f2 7e3d 8d1e a43c 1609 ea3d
000001d0: a5e0 303e 1967 483e bd54 573e 9ee9 0a3e
000001e0: d78f 9b3b 80ee 483d 32e4 a93d 434c d93d
000001f0: 0c83 2e3d a0ae 51be 5077 82be f280 45be
00000200: a733 3fbe 0c35 2bbe d6d9 dcbd a651 febd
00000210: 79f1 e7bd b4f6 02be 6fcc 18be f0b0 dd3c
00000220: 9966 403d 1278 b33d 04a9 633d 217e 083c
00000230: 12cd cb3d 2378 3d3e 1e74 6a3e 6a87 4b3e
00000240: 480f 103e 2534 9dbc b998 9e3d 65c3 893d
00000250: f5c6 a73d 8e29 b33d b1ed 183e 91bf d93d
00000260: 8449 b43d ae4c 173e cbd0 db3d f828 893d
00000270: 572a 933d cd17 0d3e d334 cf3d cb97 aa3d
00000280: 680a 30bd 2d08 8abd 0002 1fbd defd b63c
00000290: bdfc 843c bad9 36be a3f6 3abe ce9b 7abe
000002a0: 215a 82be 1955 4bbe 4756 03bd a0ad 58bd
000002b0: c70c 08bd 902a 8ebd 2476 adbd d71f 40be
000002c0: 282f 4cbe 28fb 73be 90bf 64be baa6 75be
000002d0: 894b f2bd e119 9bbd 46d0 fcbd a9b2 06be
000002e0: 6155 31be 33f1 b93d 9f74 063e 915b c53d
000002f0: 03e9 5e3d 2028 913d 050d 1b3e 3f46 323e
00000300: b1d0 713e c806 5b3e 4a12 2b3e ced5 0c3c
00000310: b1f7 053e a71c 243e a238 083e 1676 f33d
00000320: bce6 2b3e 49c3 293e 4831 153e 4f5b 2e3e
00000330: d67f a23d ba2d b93d 0c57 123e 0a74 3e3e
00000340: 2613 313e c7f5 f73d d51f 4cbd 6cd3 6cbd
00000350: d7b0 60bd f6d7 ce3c 2c7e 5f3c e4d5 74be
00000360: af86 88be fcab 90be 29fb 9ebe 9d0b 96be
00000370: 93d0 55bc 0325 4cbb b3da f4bc 833b 103c
00000380: 9fe7 8cbc 5381 a13c 5458 8f3d 063c 023d
00000390: 01ae 1e3c 402c 003d 9836 5a3c 97d2 f6bc
000003a0: 04c8 4dbc 2689 fcbc 7cfb 3abd 8ac0 f8bc
000003b0: 3ae5 8fbd cf8c 16bd 24db c7bc 4ccb 8bbd
000003c0: b230 0fbd d46d 1ebd a982 92bd e8fa cbbd
000003d0: be7f 7ebd 6afc b3bc 712d bfbc 0c9d 46bd
000003e0: c74a 94bc 85c7 97bd 8b18 e93d d7ec 213e
000003f0: 7029 063e 4537 d23d 5e66 ef3d 88ce d73d

bias f4 [30]
0.007393746 -0.0033132965 -0.018275982 -0.017070208 -0.028096104 -0.011509151 -0.008222972 -0.01880597
0.10038659 -0.007383999 -0.05078278 -0.03980781 0.011629631 0.007148144 -0.053116255 -0.015306179
0.01315471 0.0045832503 0.07651036 0.01719419 0.007797191 0.043434173 -0.033699386 -0.01470664
-0.018120496 0.04073362 0.015409142 0.030261377 -0.011031686 -0.0441958
00000000: 3d47 f23b e423 59bb 83b7 95bc d2d6 8bbc
00000010: cd29 e6bc e190 3cbc a5b9 06bc fa0e 9abc
00000020: 7c97 cd3d 79f5 f1bb 9b01 50bd 840d 23bd
00000030: 358a 3e3c fa3a ea3b 6e90 59bd c5c6 7abc
00000040: da86 573c 172f 963b 77b1 9c3d d4da 8c3c
00000050: 947f ff3b 08e8 313d 5e08 0abd 1ef4 70bc
00000060: 6f71 94bc 4cd8 263d a076 7c3c b5e6 f73c
00000070: 3fbe 34bc a806 35bd

weight f4 [30, 30, 5, 5]
-0.18244214 -0.15163198 -0.061223764 -0.080369085 -0.13558295 -0.25519595 -0.030733062 -0.07287468
-0.07513214 -0.13698128 -0.13259117 -0.06721223 -0.14216113 -0.15928957 -0.291109 -0.09529792
-0.1038325 -0.18395166 -0.1255256 -0.34430963 0.004991143 -0.07705498 -0.19809261 0.026604604
0.045512434 -0.22179955 -0.08816034 -0.011835753 -0.07738852 -0.060731504 -0.18654189 0.038392343
0.044338565 -0.0009483591 -0.010465781 -0.0514169 0.04715434 -0.1402994 -0.13870518 -0.24113205
-0.043303095 -0.095399834 -0.15697384 -0.10929512 -0.19015428 0.09502465 0.017996734 -0.11919954
0.0145963775 0.05051833 -0.12236417 -0.06558542 0.07605426 -0.097504586 -0.12817855 -0.26098603
-0.14043088 -0.10067799 -0.17514054 -0.2123433 -0.2820512 -0.09195001 -0.10181597 -0.13860835
-0.22929813 -0.06739508 -0.06552855 -0.20368478 -0.11664619 -0.24067004 -0.15965486 -0.2597092
-0.22806855 0.00950766 0.053183664 -0.07135084 -0.08843464 0.08550426 -0.034123383 -0.04534522
-0.07969779 0.05006245 0.014760518 -0.04917662 -0.09703886 -0.08199207 -0.005040157 -0.06449029
-0.054215156 -0.0967297 -0.047123455 0.030277686 -0.092279926 0.04981506 -0.14566314 0.007745726
-0.06347542 -0.0636542 0.16388045 0.19288775 -0.10516821 -0.06961776 0.11250182 -0.11275979
-0.13399234 -0.25835353 -0.08607229 -0.037182685 -0.11455935 -0.14520778 -0.19877061 -0.024976525
-0.0443967 -0.1511635 -0.21415019 -0.058230054 -0.078934565 -0.24168164 -0.12411237 -0.27776802
-0.1528683 -0.23083921 -0.20177664 0.062353324 0.11414466 -0.16131637 -0.10154301 -0.03838753
-0.014584388 -0.013895089 0.05254105 0.041282818 0.06283408 -0.01220246 -0.069270656 0.05804223
-0.0075075496 -0.043104555 -0.03701729 -0.098681346 0.106486484 0.09039285 -0.044903383 0.071902685
-0.0549085 0.21850342 0.2608887 0.19074383 0.28221145 0.14620571 -0.16151242 -0.10572494
0.07484185 -0.102634355 -0.11351139 -0.30917352 -0.10220328 -0.1634661 -0.16989551 -0.14818722
-0.24059948 -0.031704202 -0.14970528 -0.16221465 -0.32903448 -0.07197274 -0.107098445 -0.27411345
-0.17059597 -0.34166828 0.004271254 -0.11033301 -0.24436966 -0.030660247 -0.018080188 -0.40414068
-0.25447696 -0.1336113 -0.17140606 -0.18413875 -0.36092946 -0.11569053 -0.12436907 -0.10025726
-0.17477539 -0.10095865 -0.08189361 -0.21395223 -0.16111709 -0.34541765 -0.121865645 -0.17649981
-0.26961064 -0.17382586 -0.26706186 0.03375568 -0.010864031 -0.15511476 -0.0022292265 -0.023079654
0.016137747 -0.047077347 0.0495884 0.080277786 0.17078772 0.0052613392 -0.029203372 -0.0776985
-0.02606893 0.11264734 -0.017046923 -0.07698138 -0.18865304 -0.049342655 -0.008215005 0.025259752
0.07464696 -0.07247335 0.10083639 0.05251317 0.12014623 0.111177884 0.06845609 0.10707293
0.108556986 -0.06152067 -0.06346161 0.19121717 0.0420933 -0.00475043 -0.039606214 -0.04560873
0.058439832 -6.665037e-05 -0.11552331 -0.10946692 -0.009239452 -0.03775356 -0.031011382 -0.1116532
-0.07948228 -0.009941417 -0.026289947 0.092456944 0.052775156 -0.033289757 -0.09049936 -0.113838285
0.13617782 0.08985821 0.05509147 0.0040663383 0.12319056 0.05079697 0.11838908 -0.018476957
00000000: 1dd2 3abe 6a45 1bbe c5c5 7abd 8c98 a4bd
00000010: 42d6 0abe 0ba9 82be e7c3 fbbc 523f 95bd
00000020: e1de 99bd d244 0cbe fbc5 07be 91a6 89bd
00000030: b092 11be ce1c 23be 3d0c 95be 8e2b c3bd
00000040: 22a6 d4bd d35d 3cbe c889 00be 5a49 b0be
00000050: be8c a33b 00cf 9dbd cad8 4abe e6f1 d93c
00000060: 3f6b 3a3d 6c1f 63be 698d b4bd bfea 41bc
00000070: df7d 9ebd 99c1 78bd d604 3fbe 4a41 1d3d
00000080: 5b9c 353d 4d9b 78ba ab78 2bbc 879a 52bd
00000090: e924 413d a5aa 0fbe bb08 0ebe 52eb 76be
000000a0: 965e 31bd fd60 c3bd c0bd 20be 1fd6 dfbd
000000b0: ceb7 42be 499c c23d e36d 933c e31e f4bd
000000c0: a525 6f3c 4fec 4e3d 119a fabd a651 86bd
000000d0: 56c2 9b3d 7cb0 c7bd 3d41 03be f69f 85be
000000e0: 1dcd 0fbe 4330 cebd 0b58 33be 8670 59be
000000f0: 0469 90be 4950 bcbd e484 d0bd 59ef 0dbe
00000100: 21cd 6abe 6f06 8abd d533 86bd be92 50be
00000110: 33e4 eebd 3572 76be 907c 23be 9bf8 84be
00000120: cd8a 69be 04c6 1b3c 1dd7 593d 6420 92bd
00000130: 381d b5bd dc1c af3d f6c4 0bbd e9bb 39bd
00000140: 9838 a3bd 490e 4d3d 1ad6 713c 6c6d 49bd
00000150: 4fbc c6bd 75eb a7bd e727 a5bb 7c13 84bd
00000160: b610 5ebd 391a c6bd 8604 41bd e908 f83c
00000170: 42fd bcbd e00a 4c3d b828 15be dccf fd3b
00000180: 67ff 81bd 225d 82bd 47d0 273e 5e84 453e
00000190: 6e62 d7bd c293 8ebd 5b67 e63d 9bee e6bd
000001a0: 4a35 09be ea46 84be ab46 b0bd df4c 18bd
000001b0: 189e eabd 59b1 14be 868a 4bbe 929b ccbc
000001c0: 50d9 35bd 9bca 1abe 304a 5bbe a382 6ebd
000001d0: 72a8 a1bd 647b 77be a02e febd 9c37 8ebe
000001e0: 8289 1cbe 1d61 6cbe 899e 4ebe 3366 7f3d
000001f0: adc4 e93d 1e30 25be c8f5 cfbd 3e3c 1dbd
00000200: 5bf3 6ebc 3aa8 63bc 4935 573d 2c18 293d
00000210: 27af 803d d4ec 47bc c6dd 8dbd b0bd 6d3d
00000220: e401 f6bb 678e 30bd 719f 17bd 7219 cabd
00000230: 9615 da3d e31f b93d 9cec 37bd b741 933d
00000240: bce7 60bd 5cbf 5f3e 3493 853e 5a52 433e
00000250: 057e 903e f3b6 153e 8363 25be 5186 d8bd
00000260: af46 993d f631 d2bd a978 e8bd fe4b 9ebe
00000270: f44f d1bd a863 27be 17f9 2dbe 64be 17be
00000280: b65f 76be 44dc 01bd 574c 19be 991b 26be
00000290: 3577 a8be 7266 93bd 6e56 dbbd 9958 8cbe
000002a0: b6b0 2ebe 25ef aebe e0f5 8b3b 46f6 e1bd
000002b0: 0a3c 7abe 332b fbbc e71c 94bc 87eb cebe
000002c0: ce4a 82be 67d1 08be 1285 2fbe de8e 3cbe
000002d0: bfcb b8be 28ef ecbd 36b5 febd ae53 cdbd
000002e0: 52f8 32be 69c3 cebd d6b7 a7bd 4b16 5bbe
000002f0: e1fb 24be 95da b0be b294 f9bd 5ebc 34be
00000300: 680a 8abe 68ff 31be 55bc 88be 6543 0a3d
00000310: 0cff 31bc 67d6 1ebe 3718 12bb 8b11 bdbc
00000320: 4f33 843c 2dd4 40bd 351d 4b3d ae68 a43d
00000330: fae2 2e3e 5067 ac3b e93b efbc 6420 9fbd
00000340: 828e d5bc a6b3 e63d fda5 8bbc 6aa8 9dbd
00000350: 432e 41be 861b 4abd 3a98 06bc 8aed ce3c
00000360: 81e0 983d e86c 94bd 4f83 ce3d 0d18 573d
00000370: 3a0f f63d 3bb1 e33d b532 8c3d 0d49 db3d
00000380: 2053 de3d 19fd 7bbd 29f8 81bd 6fce 433e
00000390: 066a 2c3d 7fa9 9bbb 203a 22bd 38d0 3abd
000003a0: 9b5e 6f3d a5c6 8bb8 7c97 ecbd 3130 e0bd
000003b0: 1261 17bc 7aa3 1abd 950b febc 6faa e4bd
000003c0: 9bc7 a2bd 53e1 22bc 045e d7bc 115a bd3d
000003d0: c32a 583d d75a 08bd ba57 b9bd 0c24 e9bd
000003e0: 3372 0b3e 9507 b83d 98a7 613d eb3e 853b
000003f0: 554b fc3d 7c10 503d f975 f23d fd5c 97bc

bias f4 [30]
0.08426972 0.07608653 0.10472414 0.117900886 -0.026555318 0.10990201 0.1545357 0.08118753
0.0658748 0.15097424 0.08043869 0.13062516 0.14006746 0.12423103 0.13047773 0.14125647
0.056987368 0.14253905 0.07385325 0.045837432 0.0686978 0.067348704 0.13436748 0.060613047
0.18077292 0.115004025 0.06410828 0.1682821 0.0896746 0.03367198
00000000: 9a95 ac3d 41d3 9b3d 9c79 d63d 0576 f13d
00000010: 8a8a d9bc 4e14 e13d 9b3e 1e3e a645 a63d
00000020: 5ee9 863d fe98 1a3e 0abd a43d 9ac2 053e
00000030: d86d 0f3e d76c fe3d f49b 053e 89a5 103e
00000040: 966b 693d c2f5 113e 5f40 973d 08c0 3b3d
00000050: 6fb1 8c3d 1eee 893d a197 093e 6345 783d
00000060: 891c 393e 3b87 eb3d 344b 833d 2552 2c3e
00000070: 51a7 b73d a1eb 093d

weight f4 [30, 30, 5, 5]
0.34611946 0.1629231 -0.0091044055 -0.1408093 -0.1068374 0.19882254 0.059169237 -0.0756746
-0.12779462 -0.13608333 0.0003513974 -0.071508296 -0.023533845 -0.0025210467 -0.1376128 -0.21410313
0.0489243 0.082131974 0.10056906 -0.04416843 -0.043736763 -0.036800798 0.032957222 0.09848762
-0.056748062 0.25299603 0.109353095 -0.09338391 -0.032237675 -0.1285442 0.10844459 -0.029585652
-0.01118145 -0.004513312 -0.34160775 0.13799371 0.14261188 -0.0061246 -0.15766855 -0.4088329
-0.20814829 -0.07250079 -0.0043613585 0.054498482 -0.067504905 0.024372412 -0.1443535 -0.04942199
0.043247074 -0.0812384 0.1663326 -0.11859485 -0.22961847 -0.15275931 -0.1143574 0.07414462
-0.1538012 -0.09720034 -0.07531595 -0.22132073 0.113384016 0.02212626 -0.28083435 -0.397849
-0.082079194 -0.24887443 -0.23713742 -0.26218742 -0.16520414 -0.1256302 0.051887393 -0.16045244
-0.22604358 -0.02647613 0.03416646 0.18054086 0.042011976 -0.08864282 -0.071430705 -0.15068829
0.06534215 -0.0345298 -0.027120966 -0.06543101 -0.32597762 0.1192444 0.032114737 -0.106664374
-0.13150446 -0.4699881 -0.2211665 -0.17474322 -0.15137325 -0.0038017952 -0.006103983 -0.06322014
-0.21841061 -0.25684002 -0.0052812793 -0.033389885 0.18174356 0.21258157 0.011245572 -0.09502137
-0.28685823 0.11269076 -0.07082715 -0.03440878 0.04126343 -0.3087677 0.18525982 0.13378718
0.15729803 0.08146194 -0.31118152 -0.14249423 -0.05135946 0.008153825 0.13679609 -0.16057621
-0.12811632 -0.19427279 -0.23847243 0.10828366 -0.13396443 0.31319764 0.2271126 -0.07974538
-0.1527623 -0.13186532 0.2725762 0.08935778 -0.054737028 -0.3178138 -0.20560618 0.009996067
-0.102847695 0.043632135 -0.17496271 -0.31345087 -0.14252082 -0.04969297 0.014338137 -0.0054863933
-0.02481762 -0.0015509602 -0.10203134 -0.005243465 0.023465682 0.06560594 0.28310066 0.08504506
-0.10851344 0.0116887335 -0.08494205 0.10232691 -0.026620867 -0.044798736 -0.20210765 -0.14674108
0.14990012 0.14903502 -0.061771452 -0.06768047 -0.4196117 -0.309218 -0.08120419 -0.04790994
0.13572922 -0.0639096 -0.047413602 -0.166741 -0.27772176 -0.07158813 0.05215952 0.26287574
0.15618585 0.06787639 0.12571427 -0.108377814 0.12872598 -0.007874143 0.11728543 0.11096041
-0.24701881 0.099273086 0.0830666 0.1526045 0.06459431 -0.29515728 -0.056336623 -0.046470623
0.092938095 0.17222932 -0.09043699 0.028901683 -0.23865135 -0.15096152 0.056139525 -0.10033099
0.20856865 0.037437357 -0.18554403 -0.058946054 0.045718443 0.099789 -0.07782418 -0.056819085
-0.20364991 -0.0044085463 0.10652817 -0.047988914 -0.07227064 -0.22261785 -0.25450867 -0.23574501
0.14587343 0.001001552 0.11448593 -0.16353562 0.030440995 -0.37834522 -0.29397064 -0.1332871
-0.14362611 0.25378788 0.13034351 -0.038761374 0.04616016 -0.11796332 0.14139548 0.03511958
0.115286596 0.042180385 -0.34291568 0.15961564 0.09714287 0.11009748 0.023889381 -0.35068962
-0.18220288 -0.09841924 0.05759887 0.14569104 -0.096661955 -0.019906942 -0.29387146 -0.13494858
0.025314683 -0.04239159 0.28614664 0.10859311 -0.07813769 -0.13244687 -0.06018272 0.117680505
00000000: 9236 b13e 50d5 263e a52a 15bc 5030 10be
00000010: 91cd dabd 2398 4b3e 715b 723d 49fb 9abd
00000020: 98dc 02be 6e59 0bbe c33b b839 f172 92bd
00000030: 0dca c0bc 2538 25bb 5fea 0cbe da3d 5bbe
00000040: d964 483d cf34 a83d 27f7 cd3d f5e9 34bd
00000050: 5225 33bd 6fbc 16bd 27fe 063d e1b3 c93d
00000060: a870 68bd b288 813e 84f4 df3d 1040 bfbd
00000070: a70b 04bd 17a1 03be 3218 de3d 9c5d f2bc
00000080: 6732 37bc 68e4 93bb 36e7 aebe 394e 0d3e
00000090: d908 123e deb0 c8bb dd73 21be 8c52 d1be
000000a0: d324 55be 4b7b 94bd bae9 8ebb cd39 5f3d
000000b0: 0340 8abd a7a8 c73c 67d1 13be b66e 4abd
000000c0: d823 313d 5160 a6bd 1853 2a3e dbe1 f2bd
000000d0: 1b21 6bbe f06c 1cbe 3634 eabd 22d9 973d
000000e0: 107e 1dbe f910 c7bd 403f 9abd e7a1 62be
000000f0: e135 e83d 2142 b53c 85c9 8fbe ddb2 cbbe
00000100: 2319 a8bd f0d8 7ebe 27d4 72be 6e3d 86be
00000110: 462b 29be 34a5 00be e087 543d a54d 24be
00000120: f877 67be 78e4 d8bc 21f2 0b3d b4df 383e
00000130: c014 2c3d 5e8a b5bd 434a 92bd 084e 1abe
00000140: 1bd2 853d 1f6f 0dbd ca2c debc b200 86bd
00000150: 8ae6 a6be 6836 f43d be8a 033d da72 dabd
00000160: 1ba9 06be 48a2 f0be 7979 62be e3ef 32be
00000170: 9701 1bbe 8a27 79bb ec03 c8bb 9079 81bd
00000180: 08a7 5fbe 8980 83be 950e adbb d5c3 08bd
00000190: fc1a 3a3e fcae 593e 593f 383c 909a c2bd
000001a0: 15df 92be 6aca e63d d30d 91bd 39f0 0cbd
000001b0: d803 293d cd16 9ebe c0b4 3d3e 82ff 083e
000001c0: bc12 213e 85d5 a63d 2f53 9fbe 02ea 11be
000001d0: 4c5e 52bd 9f97 053c 4614 0c3e 176e 24be
000001e0: ed30 03be 72ef 46be 1e32 74be d3c3 dd3d
000001f0: f92d 09be 715b a03e 3590 683e 8c51 a3bd
00000200: b86d 1cbe b407 07be 1c8f 8b3e 3601 b73d
00000210: ef33 60bd 7eb8 a2be 6d8a 52be 8bc6 233c
00000220: d0a1 d2bd 9cb7 323d 6d29 33be a27c a0be
00000230: faf0 11be db8a 4bbd 81ea 6a3c 34c7 b3bb
00000240: 524e cbbc 9749 cbba cff5 d0bd 5fd1 abbb
00000250: 1a3b c03c 685c 863d 92f2 903e 1b2c ae3d
00000260: 4b3c debd 1a82 3f3c 19f6 adbd c590 d13d
00000270: 0114 dabc e17e 37bd 4ff5 4ebe 4b43 16be
00000280: 6b7f 193e a39c 183e 1004 7dbd 0f9c 8abd
00000290: 58d7 d6be d251 9ebe 624e a6bd 373d 44bd
000002a0: 9afc 0a3e 09e3 82bd c434 42bd 27be 2abe
000002b0: 8c31 8ebe cc9c 92bd 39a5 553d a697 863e
000002c0: 2fef 1f3e c702 8b3d 3ebb 003e 30f5 ddbd
000002d0: bed0 033e 8d02 01bc 5833 f03d 363f e33d
000002e0: 80f2 7cbe b04f cb3d d21e aa3d 5b44 1c3e
000002f0: 064a 843d db1e 97be 3bc1 66bd fb57 3ebd
00000300: 5456 be3d e25c 303e 0737 b9bd 39c3 ec3c
00000310: 0561 74be a895 1abe 8ff2 653d 567a cdbd
00000320: 0593 553e ea57 193d 41ff 3dbe 6b71 71bd
00000330: 4343 3b3d 2d5e cc3d 4962 9fbd 21bb 68bd
00000340: 9a89 50be 9175 90bb 712b da3d 0690 44bd
00000350: a102 94bd eff5 63be f64e 82be 2467 71be
00000360: d85f 153e 8246 833a 9977 ea3d e275 27be
00000370: 655f f93c 77b6 c1be 5283 96be 6a7c 08be
00000380: b912 13be 7cf0 813e c578 053e 3fc4 1ebd
00000390: 7012 3d3d c196 f1bd fac9 103e 8cd9 0f3d
000003a0: 611b ec3d 57c5 2c3d a592 afbe 4872 233e
000003b0: d7f2 c63d ca7a e13d aab3 c33c 978d b3be
000003c0: 6493 3abe 0790 c9bd cbec 6b3d 0830 153e
000003d0: b4f6 c5bd e213 a3bc 5276 96be f62f 0abe
000003e0: bd60 cf3c cea2 2dbd d081 923e 1166 de3d
000003f0: a706 a0bd 27a0 07be 2882 76bd 7a02 f13d

bias f4 [30]
0.07238321 -0.00045453885 0.01661741 -0.025797332 -0.15415883 -0.2381017 -0.22155255 -0.16603374
0.055780362 0.036122344 0.059568737 -0.05618219 -0.04446871 -0.01508349 0.18067867 -0.14374742
-0.01618497 -0.1515425 0.034891903 -0.1823474 0.19903164 0.090879105 0.068695925 -0.08625743
-0.03668367 -0.018473687 -0.16041806 -0.08096261 0.16915627 0.028355977
00000000: a63d 943d 2c4f eeb9 3c21 883c ed54 d3bc
00000010: d0db 1dbe efd0 73be acde 62be c004 2abe
00000020: f379 643d 06f5 133d 59fe 733d 4c1f 66bd
00000030: d224 36bd be20 77bc d403 393e 8632 13be
00000040: 5896 84bc f52d 1bbe d0ea 0e3d 47b9 3abe
00000050: f3ce 4b3e d31e ba3d 73b0 8c3d bca7 b0bd
00000060: 9e41 16bd 2156 97bc a244 24be bacf a5bd
00000070: 4d37 2d3e cb4a e83c

weight f4 [50, 480]
0.018892659 0.024442988 -0.06398679 0.015042273 -0.18197511 0.17925408 -0.065656304 -0.13058436
-0.13753419 -0.023995886 0.16266014 -0.11621031 -0.05504041 -0.3729788 0.019364718 0.20491108
-0.10226459 -0.08465805 -0.011534471 0.23673412 -0.22516797 0.008863834 0.02450398 -0.024759375
-0.06925614 -0.102875866 0.20662357 0.35593626 -0.3462065 -0.13488042 0.1783233 0.13588183
-0.11264681 -0.14889866 0.08112807 -0.16585393 -0.11835257 -0.046071157 -0.06713299 0.04521835
-0.092046775 -0.06991767 -0.16910578 -0.11976753 -0.1920283 0.08231808 -0.0065389117 -0.1281278
-0.039360754 -0.070098676 0.016274339 -0.1912848 0.067440316 -0.042507738 0.062493097 0.033792775
0.25449485 0.09228734 0.0034887493 0.08856531 -0.09248605 0.038617607 0.058416553 -0.13559449
-0.107000045 -0.05659957 -0.033438973 -0.2119763 -0.07993363 -0.1301971 0.044964936 -0.053399637
0.18954903 -0.003445406 0.033431068 0.17015423 0.02639356 0.24835566 0.08472991 -0.022025544
-0.20429273 -0.15707277 0.01018184 -0.13883923 -0.11943525 -0.13289104 -0.07956528 -0.123272896
-0.06526635 0.24706799 -0.2444327 0.1496077 0.034856293 0.43911076 -0.008148395 0.08730407
-0.119743615 -0.093458176 -0.1661131 -0.10308976 -0.12163355 0.027114747 -0.02604783 -0.16632786
-0.13137642 0.22976553 -0.028777542 0.09668 -0.07262554 0.2687804 0.11479765 0.10620349
-0.13257636 -0.012871876 -0.07820425 -0.10512842 -0.23232786 0.041940063 -0.024251167 -0.11659321
0.060518436 0.18083002 -0.22463499 0.30429155 -0.03408717 0.4415867 0.21440883 -0.05318308
-0.038747434 -0.039583743 -0.08890232 -0.26167554 -0.019156644 0.26365626 -0.019912653 -0.03343437
-0.0754309 0.008761372 0.110527284 -0.18170191 0.06547743 -0.38862604 0.11474565 0.11678622
-0.19795126 -0.01975894 0.035430517 0.09424342 -0.19316077 -0.022246612 0.10154891 -0.12908375
-0.04065106 -0.10956117 0.21169351 0.53880346 -0.3001378 -0.0056438525 0.12746888 -0.04048764
0.017380474 -0.14054778 -0.052410934 -0.049462706 -0.03355415 0.08403371 -0.03357392 -0.09736743
-0.20671216 0.051129196 0.15738261 -0.0825763 -0.12201808 -0.34069425 0.14974126 0.22902003
-0.17764358 -0.09640287 -0.0019549031 0.05395056 -0.07779053 0.25576112 -0.05162594 -0.103853
-0.044378348 -0.1453874 0.03088884 0.56714034 -0.12061328 0.3747048 -0.08365169 -0.06104368
-0.27117103 -0.075839356 0.021051401 0.17375928 -0.18461213 0.046778765 0.043284953 -0.0839423
0.01494342 -0.05011909 0.26068327 0.5250368 -0.23784897 -0.02663953 0.10982161 0.07677448
-0.15959954 -0.04489942 -0.014197398 0.048526827 -0.1216217 0.11789209 0.024506425 -0.039422985
0.07793125 -0.1380843 0.0010017841 0.419374 -0.10743423 0.25366744 -0.1364636 0.046742216
-0.09371458 -0.13661902 -0.045282066 -0.12547371 0.06563663 0.051860187 0.044868644 -0.062815346
0.13919197 0.06993505 -0.16366534 -0.15873712 -0.22632779 0.089035265 0.20877993 -0.089747556
-0.0644678 -0.026170745 0.14931847 -0.12825096 0.0013408882 -0.1566805 0.087773606 -0.073327154
0.17383622 0.13894795 -0.16585645 -0.072607145 0.06912198 0.3590871 0.0670414 -0.028626375
00000000: c7c4 9a3c a93c c83c 820b 83bd de73 763c
00000010: af57 3abe 628e 373e d076 86bd e8b7 05be
00000020: c3d5 0cbe 0593 c4bc 6190 263e acff edbd
00000030: 0e72 61bd 14f7 bebe c2a2 9e3c 36d4 513e
00000040: 1970 d1bd 3361 adbd 14fb 3cbc 6e6a 723e
00000050: 6f92 66be 9d39 113c 92bc c83c 2cd4 cabc
00000060: 2ad6 8dbd 95b0 d2bd 2195 533e 473d b63e
00000070: fa41 b1be 181e 0abe 629a 363e 9b24 0b3e
00000080: 5fb3 e6bd e478 18be 7926 a63d 9dd5 29be
00000090: d562 f2bd 1cb5 3cbd 057d 89bd e036 393d
000000a0: 0583 bcbd ff30 8fbd 112a 2dbe ae48 f5bd
000000b0: 11a3 44be 6296 a83d 5e44 d6bb ef33 03be
000000c0: be38 21bd e58f 8fbd c351 853c 2ae0 43be
000000d0: 261e 8a3d 981c 2ebd c3f8 7f3d 4b6a 0a3d
000000e0: 264d 823e 2501 bd3d 80a3 643b bb61 b53d
000000f0: 5469 bdbd 7f2d 1e3d 3246 6f3d 48d9 0abe
00000100: d722 dbbd f3d4 67bd 4ef7 08bd 5110 59be
00000110: 3eb4 a3bd 6352 05be 272d 383d 94b9 5abd
00000120: 2419 423e 52cc 61bb 04ef 083d e93c 2e3e
00000130: 4f37 d83c f250 7e3e e086 ad3d ea6e b4bc
00000140: 1d32 51be afd7 20be bbd1 263c df2b 0ebe
00000150: 789a f4bd 9714 08be 1ff3 a2bd 8076 fcbd
00000160: 5daa 85bd 64ff 7c3e 914c 7abe c332 193e
00000170: 79c5 0e3d 20d3 e03e d980 05bc 7acc b23d
00000180: 243c f5bd 0067 bfbd 8d19 2abe b920 d3bd
00000190: 031b f9bd bf1f de3c 4262 d5bc da51 2abe
000001a0: 8a87 06be a847 6b3e e1be ebbc 2a00 c63d
000001b0: b3bc 94bd 969d 893e 081b eb3d 3781 d93d
000001c0: 19c2 07be 90e4 52bc 8d29 a0bd 924d d7bd
000001d0: 5be7 6dbe 58c9 2b3d 62aa c6bc 6cc8 eebd
000001e0: 2ee2 773d 812b 393e b706 66be 1acc 9b3e
000001f0: fd9e 0bbd a717 e23e fd8d 5b3e 80d6 59bd
00000200: a1b5 1ebd 9022 22bd 6b12 b6bd 56fa 85be
00000210: 65ee 9cbc f4fd 863e dc1f a3bc 7af2 08bd
00000220: 847b 9abd dc8b 0f3c 215c e23d 1110 3abe
00000230: 0819 863d fef9 c6be c4ff ea3d 9d2d ef3d
00000240: bcb3 4abe 80dd a1bc 971f 113d b202 c13d
00000250: f0cb 45be 873e b6bc e0f8 cf3d 882e 04be
00000260: ba81 26bd 9b61 e0bd 2fc6 583e 06ef 093f
00000270: a9ab 99be 11f0 b8bb 3487 023e 5ed6 25bd
00000280: 7f61 8e3c c2eb 0fbe d9ac 56bd 6899 4abd
00000290: 1470 09bd de19 ac3d cf84 09bd 9368 c7bd
000002a0: 5aac 53be d96c 513d e828 213e c31d a9bd
000002b0: 9de4 f9bd 7a6f aebe c655 193e 3a84 6a3e
000002c0: 33e8 35be de6e c5bd d51d 00bb 43fb 5c3d
000002d0: a450 9fbd 1ff3 823e b975 53bd e2b0 d4bd
000002e0: 12c6 35bd 6fe0 14be 980a fd3c 1c30 113f
000002f0: 1804 f7bd 4fd9 bf3e 9451 abbd f008 7abd
00000300: eed6 8abe aa51 9bbd fd73 ac3c f4ed 313e
00000310: f60a 3dbe 179b 3f3d 904b 313d f1e9 abbd
00000320: 3fd5 743c ad49 4dbd 4778 853e d068 063f
00000330: ae8e 73be 253b dabc 27ea e03d f03b 9d3d
00000340: 106e 23be 74e8 37bd 349c 68bc 11c4 463d
00000350: cc14 f9bd 6871 f13d b3c1 c83c ff79 21bd
00000360: 6b9a 9f3d f965 0dbe 4c4e 833a 30b8 d63e
00000370: 7a06 dcbd b3e0 813e 1dbd 0bbe c474 3f3d
00000380: 6eed bfbd dbe5 0bbe b079 39bd 2e7c 00be
00000390: 7f6c 863d 596b 543d 2fc8 373d 55a5 80bd
000003a0: 5788 0e3e 1c3a 8f3d e397 27be fc8b 22be
000003b0: 79c2 67be 1f58 b63d 68ca 553e 91cd b7bd
000003c0: b207 84bd 0864 d6bc f1e6 183e 3854 03be
000003d0: bec0 af3a da70 20be a6c2 b33d 8c2c 96bd
000003e0: 1f02 323e 5f48 0e3e 46d6 29be 0eb3 94bd
000003f0: d38f 8d3d 44da b73e 004d 893d dc81 eabc

bias f4 [50]
-0.18871598 0.20206788 0.16648078 0.35022837 0.08658731 0.37420914 0.35061342 0.13061802
-0.23669657 0.3771773 0.24198842 -0.17102502 -0.26730323 -0.11867178 0.14089221 -0.25600278
-0.16555509 -0.15030053 -0.061013013 0.2620092 0.13315165 -0.2961017 0.31682146 0.22423837
0.267304 -0.07998137 -0.09664558 -0.10982463 -0.07715456 -0.15107039 0.24160588 -0.13087969
0.09934418 0.17508274 0.18542469 -0.083409704 0.18638831 -0.14682864 -0.14909796 -0.084173165
-0.14307886 0.32068714 0.15481111 0.22130091 -0.10266497 0.21803333 -0.18112268 0.24721107
0.23149884 -0.12955172
00000000: c33e 41be e2ea 4e3e f079 2a3e 2251 b33e
00000010: b054 b13d 5798 bf3e 9a83 b33e bbc0 053e
00000020: 9660 72be 621d c13e d0cb 773e 2f21 2fbe
00000030: f8db 88be 310a f3bd 0c46 103e cc12 83be
00000040: 4687 29be 62e8 19be c8e8 79bd 1226 863e
00000050: e858 083e a49a 97be 6c36 a23e be9e 653e
00000060: 12dc 883e 46cd a3bd 1eee c5bd bceb e0bd
00000070: 3603 9ebd 32b2 1abe 8867 773e 5305 06be
00000080: f674 cb3d e448 333e f8df 3d3e b5d2 aabd
00000090: 94dc 3e3e 3f5a 16be 23ad 18be fb62 acbd
000000a0: 4483 12be 1b31 a43e ce86 1e3e b59c 623e
000000b0: 0342 d2bd 2144 5f3e 3978 39be e624 7d3e
000000c0: 080e 6d3e 35a9 04be

weight f4 [2, 50]
-0.46900293 0.40831447 0.6804644 0.41758394 0.34807104 0.23424539 0.20676456 0.31980008
-0.30997935 0.39111787 0.4836427 -0.15485562 -0.58028144 -0.13070932 0.31374916 -0.58638346
-0.22940081 -0.08395681 -0.18410666 0.7643773 0.3450761 -0.48723918 0.35429156 0.29115102
0.29093567 -0.19784556 -0.23524219 -0.066528276 -0.18024716 -0.120240144 0.45685896 -0.23843427
0.285022 0.38934848 0.5400627 -0.17947318 0.59123075 -0.20436691 -0.09809179 -0.18248607
-0.17685047 0.38595402 0.4617806 0.3564369 -0.046364345 0.46552297 -0.15108955 0.59100205
0.32801294 -0.10468139 0.47893658 -0.30675477 -0.52643806 -0.21862364 -0.26662353 -0.4023144
-0.41459343 -0.2259817 0.5098551 -0.27555716 -0.36898887 0.15635468 0.66137004 0.20608652
-0.21898857 0.42217842 0.09392395 0.23972791 0.12969637 -0.95656925 -0.2861925 0.5786312
-0.27044865 -0.30804 -0.30192155 0.18741411 0.10183036 0.2495104 0.21688864 0.25628173
-0.30743435 0.26809812 -0.29470196 -0.40989015 -0.619227 0.25798026 -0.50912124 0.1923674
0.18482038 0.14905353 0.077565864 -0.2807235 -0.538969 -0.3096429 0.26481575 -0.3390874
0.12722038 -0.78677833 -0.303191 0.2528224
00000000: 2721 f0be 980e d13e ea32 2e3f 90cd d53e
00000010: 5e36 b23e 06de 6f3e 17ba 533e d6bc a33e
00000020: 9db5 9ebe 9a40 c83e 04a0 f73e 7992 1ebe
00000030: 538d 14bf aad8 05be bba3 a03e 3a1d 16bf
00000040: 0ce8 6abe 8cf1 abbd 7586 3cbe 3bae 433f
00000050: d1ad b03e 6a77 f9be b465 b53e bf11 953e
00000060: 85f5 943e 0798 4abe 54e3 70be fa3f 88bd
00000070: b692 38be 7740 f6bd 6be9 e93e 1d28 74be
00000080: 67ee 913e af58 c73e 8d41 0a3f d1c7 37be
00000090: e65a 173f 8f45 51be 59e4 c8bd a1dd 3abe
000000a0: 4a18 35be c49b c53e 826e ec3e e67e b63e
000000b0: 8ae8 3dbd 0759 ee3e 38b7 1abe e94b 173f
000000c0: 50f1 a73e 3263 d6bd 2d37 f53e f60e 9dbe
000000d0: a5c4 06bf e0de 5fbe e182 88be 27fc cdbe
000000e0: 9745 d4be bf67 67be dd85 023f d415 8dbe
000000f0: 1cec bcbe 711b 203e 8c4f 293f 5808 533e
00000100: 8a3e 60be c527 d83e 335b c03d 3c7b 753e
00000110: 20cf 043e b9e1 74bf d387 92be 2d21 143f
00000120: 3f78 8abe 6bb7 9dbe 7695 9abe 7ce9 3f3e
00000130: 708c d03d a87f 7f3e 0e18 5e3e 5c37 833e
00000140: 0968 9dbe 2844 893e 2de3 96be 1fdd d1be
00000150: a985 1ebf fd15 843e c555 02bf f6fb 443e
00000160: 8e41 3d3e 7da1 183e dada 9e3d feba 8fbe
00000170: dff9 09bf 8489 9ebe ee95 873e dd9c adbe
00000180: 0f46 023e 4e6a 49bf da3b 9bbe f071 813e

bias f4 [2]
0.14731693 -0.0043643876
00000000: 40da 163e 2303 8fbb
